========================================================================================================================
Layer (type (var_name))                  Input Shape          Output Shape         Param #              Trainable
========================================================================================================================
ResNet (ResNet)                          [1, 3, 224, 224]     [1, 1000]            --                   True
├─Conv2d (conv1)                         [1, 3, 224, 224]     [1, 64, 112, 112]    9,408                True
├─BatchNorm2d (bn1)                      [1, 64, 112, 112]    [1, 64, 112, 112]    128                  True
├─ReLU (relu)                            [1, 64, 112, 112]    [1, 64, 112, 112]    --                   --
├─MaxPool2d (maxpool)                    [1, 64, 112, 112]    [1, 64, 56, 56]      --                   --
├─Sequential (layer1)                    [1, 64, 56, 56]      [1, 64, 56, 56]      --                   True
│    └─BasicBlock (0)                    [1, 64, 56, 56]      [1, 64, 56, 56]      --                   True
│    │    └─Conv2d (conv1)               [1, 64, 56, 56]      [1, 64, 56, 56]      36,864               True
│    │    └─BatchNorm2d (bn1)            [1, 64, 56, 56]      [1, 64, 56, 56]      128                  True
│    │    └─ReLU (relu)                  [1, 64, 56, 56]      [1, 64, 56, 56]      --                   --
│    │    └─Conv2d (conv2)               [1, 64, 56, 56]      [1, 64, 56, 56]      36,864               True
│    │    └─BatchNorm2d (bn2)            [1, 64, 56, 56]      [1, 64, 56, 56]      128                  True
│    │    └─ReLU (relu)                  [1, 64, 56, 56]      [1, 64, 56, 56]      --                   --
│    └─BasicBlock (1)                    [1, 64, 56, 56]      [1, 64, 56, 56]      --                   True
│    │    └─Conv2d (conv1)               [1, 64, 56, 56]      [1, 64, 56, 56]      36,864               True
│    │    └─BatchNorm2d (bn1)            [1, 64, 56, 56]      [1, 64, 56, 56]      128                  True
│    │    └─ReLU (relu)                  [1, 64, 56, 56]      [1, 64, 56, 56]      --                   --
│    │    └─Conv2d (conv2)               [1, 64, 56, 56]      [1, 64, 56, 56]      36,864               True
│    │    └─BatchNorm2d (bn2)            [1, 64, 56, 56]      [1, 64, 56, 56]      128                  True
│    │    └─ReLU (relu)                  [1, 64, 56, 56]      [1, 64, 56, 56]      --                   --
├─Sequential (layer2)                    [1, 64, 56, 56]      [1, 128, 28, 28]     --                   True
│    └─BasicBlock (0)                    [1, 64, 56, 56]      [1, 128, 28, 28]     --                   True
│    │    └─Conv2d (conv1)               [1, 64, 56, 56]      [1, 128, 28, 28]     73,728               True
│    │    └─BatchNorm2d (bn1)            [1, 128, 28, 28]     [1, 128, 28, 28]     256                  True
│    │    └─ReLU (relu)                  [1, 128, 28, 28]     [1, 128, 28, 28]     --                   --
│    │    └─Conv2d (conv2)               [1, 128, 28, 28]     [1, 128, 28, 28]     147,456              True
│    │    └─BatchNorm2d (bn2)            [1, 128, 28, 28]     [1, 128, 28, 28]     256                  True
│    │    └─Sequential (downsample)      [1, 64, 56, 56]      [1, 128, 28, 28]     8,448                True
│    │    └─ReLU (relu)                  [1, 128, 28, 28]     [1, 128, 28, 28]     --                   --
│    └─BasicBlock (1)                    [1, 128, 28, 28]     [1, 128, 28, 28]     --                   True
│    │    └─Conv2d (conv1)               [1, 128, 28, 28]     [1, 128, 28, 28]     147,456              True
│    │    └─BatchNorm2d (bn1)            [1, 128, 28, 28]     [1, 128, 28, 28]     256                  True
│    │    └─ReLU (relu)                  [1, 128, 28, 28]     [1, 128, 28, 28]     --                   --
│    │    └─Conv2d (conv2)               [1, 128, 28, 28]     [1, 128, 28, 28]     147,456              True
│    │    └─BatchNorm2d (bn2)            [1, 128, 28, 28]     [1, 128, 28, 28]     256                  True
│    │    └─ReLU (relu)                  [1, 128, 28, 28]     [1, 128, 28, 28]     --                   --
├─Sequential (layer3)                    [1, 128, 28, 28]     [1, 256, 14, 14]     --                   True
│    └─BasicBlock (0)                    [1, 128, 28, 28]     [1, 256, 14, 14]     --                   True
│    │    └─Conv2d (conv1)               [1, 128, 28, 28]     [1, 256, 14, 14]     294,912              True
│    │    └─BatchNorm2d (bn1)            [1, 256, 14, 14]     [1, 256, 14, 14]     512                  True
│    │    └─ReLU (relu)                  [1, 256, 14, 14]     [1, 256, 14, 14]     --                   --
│    │    └─Conv2d (conv2)               [1, 256, 14, 14]     [1, 256, 14, 14]     589,824              True
│    │    └─BatchNorm2d (bn2)            [1, 256, 14, 14]     [1, 256, 14, 14]     512                  True
│    │    └─Sequential (downsample)      [1, 128, 28, 28]     [1, 256, 14, 14]     33,280               True
│    │    └─ReLU (relu)                  [1, 256, 14, 14]     [1, 256, 14, 14]     --                   --
│    └─BasicBlock (1)                    [1, 256, 14, 14]     [1, 256, 14, 14]     --                   True
│    │    └─Conv2d (conv1)               [1, 256, 14, 14]     [1, 256, 14, 14]     589,824              True
│    │    └─BatchNorm2d (bn1)            [1, 256, 14, 14]     [1, 256, 14, 14]     512                  True
│    │    └─ReLU (relu)                  [1, 256, 14, 14]     [1, 256, 14, 14]     --                   --
│    │    └─Conv2d (conv2)               [1, 256, 14, 14]     [1, 256, 14, 14]     589,824              True
│    │    └─BatchNorm2d (bn2)            [1, 256, 14, 14]     [1, 256, 14, 14]     512                  True
│    │    └─ReLU (relu)                  [1, 256, 14, 14]     [1, 256, 14, 14]     --                   --
├─Sequential (layer4)                    [1, 256, 14, 14]     [1, 512, 7, 7]       --                   True
│    └─BasicBlock (0)                    [1, 256, 14, 14]     [1, 512, 7, 7]       --                   True
│    │    └─Conv2d (conv1)               [1, 256, 14, 14]     [1, 512, 7, 7]       1,179,648            True
│    │    └─BatchNorm2d (bn1)            [1, 512, 7, 7]       [1, 512, 7, 7]       1,024                True
│    │    └─ReLU (relu)                  [1, 512, 7, 7]       [1, 512, 7, 7]       --                   --
│    │    └─Conv2d (conv2)               [1, 512, 7, 7]       [1, 512, 7, 7]       2,359,296            True
│    │    └─BatchNorm2d (bn2)            [1, 512, 7, 7]       [1, 512, 7, 7]       1,024                True
│    │    └─Sequential (downsample)      [1, 256, 14, 14]     [1, 512, 7, 7]       132,096              True
│    │    └─ReLU (relu)                  [1, 512, 7, 7]       [1, 512, 7, 7]       --                   --
│    └─BasicBlock (1)                    [1, 512, 7, 7]       [1, 512, 7, 7]       --                   True
│    │    └─Conv2d (conv1)               [1, 512, 7, 7]       [1, 512, 7, 7]       2,359,296            True
│    │    └─BatchNorm2d (bn1)            [1, 512, 7, 7]       [1, 512, 7, 7]       1,024                True
│    │    └─ReLU (relu)                  [1, 512, 7, 7]       [1, 512, 7, 7]       --                   --
│    │    └─Conv2d (conv2)               [1, 512, 7, 7]       [1, 512, 7, 7]       2,359,296            True
│    │    └─BatchNorm2d (bn2)            [1, 512, 7, 7]       [1, 512, 7, 7]       1,024                True
│    │    └─ReLU (relu)                  [1, 512, 7, 7]       [1, 512, 7, 7]       --                   --
├─AdaptiveAvgPool2d (avgpool)            [1, 512, 7, 7]       [1, 512, 1, 1]       --                   --
├─Linear (fc)                            [1, 512]             [1, 1000]            513,000              True
========================================================================================================================
Total params: 11,689,512
Trainable params: 11,689,512
Non-trainable params: 0
Total mult-adds (Units.GIGABYTES): 1.81
========================================================================================================================
Input size (MB): 0.60
…
