========================================================================================================================
Layer (type (var_name))                  Input Shape          Output Shape         Param #              Trainable
========================================================================================================================
ResNet (ResNet)                          [1, 3, 224, 224]     [1, 1000]            --                   True
├─Conv2d (conv1)                         [1, 3, 224, 224]     [1, 64, 112, 112]    9,408                True
├─BatchNorm2d (bn1)                      [1, 64, 112, 112]    [1, 64, 112, 112]    128                  True
├─ReLU (relu)                            [1, 64, 112, 112]    [1, 64, 112, 112]    --                   --
├─MaxPool2d (maxpool)                    [1, 64, 112, 112]    [1, 64, 56, 56]      --                   --
├─Sequential (layer1)                    [1, 64, 56, 56]      [1, 256, 56, 56]     --                   True
│    └─Bottleneck (0)                    [1, 64, 56, 56]      [1, 256, 56, 56]     --                   True
│    │    └─Conv2d (conv1)               [1, 64, 56, 56]      [1, 64, 56, 56]      4,096                True
│    │    └─BatchNorm2d (bn1)            [1, 64, 56, 56]      [1, 64, 56, 56]      128                  True
│    │    └─ReLU (relu)                  [1, 64, 56, 56]      [1, 64, 56, 56]      --                   --
│    │    └─Conv2d (conv2)               [1, 64, 56, 56]      [1, 64, 56, 56]      36,864               True
│    │    └─BatchNorm2d (bn2)            [1, 64, 56, 56]      [1, 64, 56, 56]      128                  True
│    │    └─ReLU (relu)                  [1, 64, 56, 56]      [1, 64, 56, 56]      --                   --
│    │    └─Conv2d (conv3)               [1, 64, 56, 56]      [1, 256, 56, 56]     16,384               True
│    │    └─BatchNorm2d (bn3)            [1, 256, 56, 56]     [1, 256, 56, 56]     512                  True
│    │    └─Sequential (downsample)      [1, 64, 56, 56]      [1, 256, 56, 56]     16,896               True
│    │    └─ReLU (relu)                  [1, 256, 56, 56]     [1, 256, 56, 56]     --                   --
│    └─Bottleneck (1)                    [1, 256, 56, 56]     [1, 256, 56, 56]     --                   True
│    │    └─Conv2d (conv1)               [1, 256, 56, 56]     [1, 64, 56, 56]      16,384               True
│    │    └─BatchNorm2d (bn1)            [1, 64, 56, 56]      [1, 64, 56, 56]      128                  True
│    │    └─ReLU (relu)                  [1, 64, 56, 56]      [1, 64, 56, 56]      --                   --
│    │    └─Conv2d (conv2)               [1, 64, 56, 56]      [1, 64, 56, 56]      36,864               True
│    │    └─BatchNorm2d (bn2)            [1, 64, 56, 56]      [1, 64, 56, 56]      128                  True
│    │    └─ReLU (relu)                  [1, 64, 56, 56]      [1, 64, 56, 56]      --                   --
│    │    └─Conv2d (conv3)               [1, 64, 56, 56]      [1, 256, 56, 56]     16,384               True
│    │    └─BatchNorm2d (bn3)            [1, 256, 56, 56]     [1, 256, 56, 56]     512                  True
│    │    └─ReLU (relu)                  [1, 256, 56, 56]     [1, 256, 56, 56]     --                   --
│    └─Bottleneck (2)                    [1, 256, 56, 56]     [1, 256, 56, 56]     --                   True
│    │    └─Conv2d (conv1)               [1, 256, 56, 56]     [1, 64, 56, 56]      16,384               True
│    │    └─BatchNorm2d (bn1)            [1, 64, 56, 56]      [1, 64, 56, 56]      128                  True
│    │    └─ReLU (relu)                  [1, 64, 56, 56]      [1, 64, 56, 56]      --                   --
│    │    └─Conv2d (conv2)               [1, 64, 56, 56]      [1, 64, 56, 56]      36,864               True
│    │    └─BatchNorm2d (bn2)            [1, 64, 56, 56]      [1, 64, 56, 56]      128                  True
│    │    └─ReLU (relu)                  [1, 64, 56, 56]      [1, 64, 56, 56]      --                   --
│    │    └─Conv2d (conv3)               [1, 64, 56, 56]      [1, 256, 56, 56]     16,384               True
│    │    └─BatchNorm2d (bn3)            [1, 256, 56, 56]     [1, 256, 56, 56]     512                  True
│    │    └─ReLU (relu)                  [1, 256, 56, 56]     [1, 256, 56, 56]     --                   --
├─Sequential (layer2)                    [1, 256, 56, 56]     [1, 512, 28, 28]     --                   True
│    └─Bottleneck (0)                    [1, 256, 56, 56]     [1, 512, 28, 28]     --                   True
│    │    └─Conv2d (conv1)               [1, 256, 56, 56]     [1, 128, 56, 56]     32,768               True
│    │    └─BatchNorm2d (bn1)            [1, 128, 56, 56]     [1, 128, 56, 56]     256                  True
│    │    └─ReLU (relu)                  [1, 128, 56, 56]     [1, 128, 56, 56]     --                   --
│    │    └─Conv2d (conv2)               [1, 128, 56, 56]     [1, 128, 28, 28]     147,456              True
│    │    └─BatchNorm2d (bn2)            [1, 128, 28, 28]     [1, 128, 28, 28]     256                  True
│    │    └─ReLU (relu)                  [1, 128, 28, 28]     [1, 128, 28, 28]     --                   --
│    │    └─Conv2d (conv3)               [1, 128, 28, 28]     [1, 512, 28, 28]     65,536               True
│    │    └─BatchNorm2d (bn3)            [1, 512, 28, 28]     [1, 512, 28, 28]     1,024                True
│    │    └─Sequential (downsample)      [1, 256, 56, 56]     [1, 512, 28, 28]     132,096              True
│    │    └─ReLU (relu)                  [1, 512, 28, 28]     [1, 512, 28, 28]     --                   --
│    └─Bottleneck (1)                    [1, 512, 28, 28]     [1, 512, 28, 28]     --                   True
│    │    └─Conv2d (conv1)               [1, 512, 28, 28]     [1, 128, 28, 28]     65,536               True
│    │    └─BatchNorm2d (bn1)            [1, 128, 28, 28]     [1, 128, 28, 28]     256                  True
│    │    └─ReLU (relu)                  [1, 128, 28, 28]     [1, 128, 28, 28]     --                   --
│    │    └─Conv2d (conv2)               [1, 128, 28, 28]     [1, 128, 28, 28]     147,456              True
│    │    └─BatchNorm2d (bn2)            [1, 128, 28, 28]     [1, 128, 28, 28]     256                  True
│    │    └─ReLU (relu)                  [1, 128, 28, 28]     [1, 128, 28, 28]     --                   --
│    │    └─Conv2d (conv3)               [1, 128, 28, 28]     [1, 512, 28, 28]     65,536               True
│    │    └─BatchNorm2d (bn3)            [1, 512, 28, 28]     [1, 512, 28, 28]     1,024                True
│    │    └─ReLU (relu)                  [1, 512, 28, 28]     [1, 512, 28, 28]     --                   --
│    └─Bottleneck (2)                    [1, 512, 28, 28]     [1, 512, 28, 28]     --                   True
│    │    └─Conv2d (conv1)               [1, 512, 28, 28]     [1, 128, 28, 28]     65,536               True
│    │    └─BatchNorm2d (bn1)            [1, 128, 28, 28]     [1, 128, 28, 28]     256                  True
│    │    └─ReLU (relu)                  [1, 128, 28, 28]     [1, 128, 28, 28]     --                   --
│    │    └─Conv2d (conv2)               [1, 128, 28, 28]     [1, 128, 28, 28]     147,456              True
│    │    └─BatchNorm2d (bn2)            [1, 128, 28, 28]     [1, 128, 28, 28]     256                  True
│    │    └─ReLU (relu)                  [1, 128, 28, 28]     [1, 128, 28, 28]     --                   --
│    │    └─Conv2d (conv3)               [1, 128, 28, 28]     [1, 512, 28, 28]     65,536               True
│    │    └─BatchNorm2d (bn3)            [1, 512, 28, 28]     [1, 512, 28, 28]     1,024                True
│    │    └─ReLU (relu)                  [1, 512, 28, 28]     [1, 512, 28, 28]     --                   --
│    └─Bottleneck (3)                    [1, 512, 28, 28]     [1, 512, 28, 28]     --                   True
│    │    └─Conv2d (conv1)               [1, 512, 28, 28]     [1, 128, 28, 28]     65,536               True
│    │    └─BatchNorm2d (bn1)            [1, 128, 28, 28]     [1, 128, 28, 28]     256                  True
│    │    └─ReLU (relu)                  [1, 128, 28, 28]     [1, 128, 28, 28]     --                   --
│    │    └─Conv2d (conv2)               [1, 128, 28, 28]     [1, 128, 28, 28]     147,456              True
│    │    └─BatchNorm2d (bn2)            [1, 128, 28, 28]     [1, 128, 28, 28]     256                  True
│    │    └─ReLU (relu)                  [1, 128, 28, 28]     [1, 128, 28, 28]     --                   --
│    │    └─Conv2d (conv3)               [1, 128, 28, 28]     [1, 512, 28, 28]     65,536               True
│    │    └─BatchNorm2d (bn3)            [1, 512, 28, 28]     [1, 512, 28, 28]     1,024                True
│    │    └─ReLU (relu)                  [1, 512, 28, 28]     [1, 512, 28, 28]     --                   --
├─Sequential (layer3)                    [1, 512, 28, 28]     [1, 1024, 14, 14]    --                   True
│    └─Bottleneck (0)                    [1, 512, 28, 28]     [1, 1024, 14, 14]    --                   True
│    │    └─Conv2d (conv1)               [1, 512, 28, 28]     [1, 256, 28, 28]     131,072              True
│    │    └─BatchNorm2d (bn1)            [1, 256, 28, 28]     [1, 256, 28, 28]     512                  True
│    │    └─ReLU (relu)                  [1, 256, 28, 28]     [1, 256, 28, 28]     --                   --
│    │    └─Conv2d (conv2)               [1, 256, 28, 28]     [1, 256, 14, 14]     589,824              True
│    │    └─BatchNorm2d (bn2)            [1, 256, 14, 14]     [1, 256, 14, 14]     512                  True
│    │    └─ReLU (relu)                  [1, 256, 14, 14]     [1, 256, 14, 14]     --                   --
│    │    └─Conv2d (conv3)               [1, 256, 14, 14]     [1, 1024, 14, 14]    262,144              True
│    │    └─BatchNorm2d (bn3)            [1, 1024, 14, 14]    [1, 1024, 14, 14]    2,048                True
│    │    └─Sequential (downsample)      [1, 512, 28, 28]     [1, 1024, 14, 14]    526,336              True
│    │    └─ReLU (relu)                  [1, 1024, 14, 14]    [1, 1024, 14, 14]    --                   --
│    └─Bottleneck (1)                    [1, 1024, 14, 14]    [1, 1024, 14, 14]    --                   True
│    │    └─Conv2d (conv1)               [1, 1024, 14, 14]    [1, 256, 14, 14]     262,144              True
│    │    └─BatchNorm2d (bn1)            [1, 256, 14, 14]     [1, 256, 14, 14]     512                  True
│    │    └─ReLU (relu)                  [1, 256, 14, 14]     [1, 256, 14, 14]     --                   --
│    │    └─Conv2d (conv2)               [1, 256, 14, 14]     [1, 256, 14, 14]     589,824              True
│    │    └─BatchNorm2d (bn2)            [1, 256, 14, 14]     [1, 256, 14, 14]     512                  True
│    │    └─ReLU (relu)                  [1, 256, 14, 14]     [1, 256, 14, 14]     --                   --
│    │    └─Conv2d (conv3)               [1, 256, 14, 14]     [1, 1024, 14, 14]    262,144              True
│    │    └─BatchNorm2d (bn3)            [1, 1024, 14, 14]    [1, 1024, 14, 14]    2,048                True
│    │    └─ReLU (relu)                  [1, 1024, 14, 14]    [1, 1024, 14, 14]    --                   --
│    └─Bottleneck (2)                    [1, 1024, 14, 14]    [1, 1024, 14, 14]    --                   True
│    │    └─Conv2d (conv1)               [1, 1024, 14, 14]    [1, 256, 14, 14]     262,144              True
│    │    └─BatchNorm2d (bn1)            [1, 256, 14, 14]     [1, 256, 14, 14]     512                  True
│    │    └─ReLU (relu)                  [1, 256, 14, 14]     [1, 256, 14, 14]     --                   --
│    │    └─Conv2d (conv2)               [1, 256, 14, 14]     [1, 256, 14, 14]     589,824              True
│    │    └─BatchNorm2d (bn2)            [1, 256, 14, 14]     [1, 256, 14, 14]     512                  True
│    │    └─ReLU (relu)                  [1, 256, 14, 14]     [1, 256, 14, 14]     --                   --
│    │    └─Conv2d (conv3)               [1, 256, 14, 14]     [1, 1024, 14, 14]    262,144              True
│    │    └─BatchNorm2d (bn3)            [1, 1024, 14, 14]    [1, 1024, 14, 14]    2,048                True
│    │    └─ReLU (relu)                  [1, 1024, 14, 14]    [1, 1024, 14, 14]    --                   --
│    └─Bottleneck (3)                    [1, 1024, 14, 14]    [1, 1024, 14, 14]    --                   True
│    │    └─Conv2d (conv1)               [1, 1024, 14, 14]    [1, 256, 14, 14]     262,144              True
│    │    └─BatchNorm2d (bn1)            [1, 256, 14, 14]     [1, 256, 14, 14]     512                  True
│    │    └─ReLU (relu)                  [1, 256, 14, 14]     [1, 256, 14, 14]     --                   --
│    │    └─Conv2d (conv2)               [1, 256, 14, 14]     [1, 256, 14, 14]     589,824              True
│    │    └─BatchNorm2d (bn2)            [1, 256, 14, 14]     [1, 256, 14, 14]     512                  True
│    │    └─ReLU (relu)                  [1, 256, 14, 14]     [1, 256, 14, 14]     --                   --
│    │    └─Conv2d (conv3)               [1, 256, 14, 14]     [1, 1024, 14, 14]    262,144              True
│    │    └─BatchNorm2d (bn3)            [1, 1024, 14, 14]    [1, 1024, 14, 14]    2,048                True
│    │    └─ReLU (relu)                  [1, 1024, 14, 14]    [1, 1024, 14, 14]    --                   --
│    └─Bottleneck (4)                    [1, 1024, 14, 14]    [1, 1024, 14, 14]    --                   True
│    │    └─Conv2d (conv1)               [1, 1024, 14, 14]    [1, 256, 14, 14]     262,144              True
│    │    └─BatchNorm2d (bn1)            [1, 256, 14, 14]     [1, 256, 14, 14]     512                  True
│    │    └─ReLU (relu)                  [1, 256, 14, 14]     [1, 256, 14, 14]     --                   --
│    │    └─Conv2d (conv2)               [1, 256, 14, 14]     [1, 256, 14, 14]     589,824              True
│    │    └─BatchNorm2d (bn2)            [1, 256, 14, 14]     [1, 256, 14, 14]     512                  True
│    │    └─ReLU (relu)                  [1, 256, 14, 14]     [1, 256, 14, 14]     --                   --
│    │    └─Conv2d (conv3)               [1, 256, 14, 14]     [1, 1024, 14, 14]    262,144              True
│    │    └─BatchNorm2d (bn3)            [1, 1024, 14, 14]    [1, 1024, 14, 14]    2,048                True
│    │    └─ReLU (relu)                  [1, 1024, 14, 14]    [1, 1024, 14, 14]    --                   --
│    └─Bottleneck (5)                    [1, 1024, 14, 14]    [1, 1024, 14, 14]    --                   True
│    │    └─Conv2d (conv1)               [1, 1024, 14, 14]    [1, 256, 14, 14]     262,144              True
│    │    └─BatchNorm2d (bn1)            [1, 256, 14, 14]     [1, 256, 14, 14]     512                  True
│    │    └─ReLU (relu)                  [1, 256, 14, 14]     [1, 256, 14, 14]     --                   --
│    │    └─Conv2d (conv2)               [1, 256, 14, 14]     [1, 256, 14, 14]     589,824              True
│    │    └─BatchNorm2d (bn2)            [1, 256, 14, 14]     [1, 256, 14, 14]     512                  True
│    │    └─ReLU (relu)                  [1, 256, 14, 14]     [1, 256, 14, 14]     --                   --
│    │    └─Conv2d (conv3)               [1, 256, 14, 14]     [1, 1024, 14, 14]    262,144              True
│    │    └─BatchNorm2d (bn3)            [1, 1024, 14, 14]    [1, 1024, 14, 14]    2,048                True
│    │    └─ReLU (relu)                  [1, 1024, 14, 14]    [1, 1024, 14, 14]    --                   --
├─Sequential (layer4)                    [1, 1024, 14, 14]    [1, 2048, 7, 7]      --                   True
│    └─Bottleneck (0)                    [1, 1024, 14, 14]    [1, 2048, 7, 7]      --                   True
│    │    └─Conv2d (conv1)               [1, 1024, 14, 14]    [1, 512, 14, 14]     524,288              True
│    │    └─BatchNorm2d (bn1)            [1, 512, 14, 14]     [1, 512, 14, 14]     1,024                True
│    │    └─ReLU (relu)                  [1, 512, 14, 14]     [1, 512, 14, 14]     --                   --
│    │    └─Conv2d (conv2)               [1, 512, 14, 14]     [1, 512, 7, 7]       2,359,296            True
│    │    └─BatchNorm2d (bn2)            [1, 512, 7, 7]       [1, 512, 7, 7]       1,024                True
│    │    └─ReLU (relu)                  [1, 512, 7, 7]       [1, 512, 7, 7]       --                   --
│    │    └─Conv2d (conv3)               [1, 512, 7, 7]       [1, 2048, 7, 7]      1,048,576            True
│    │    └─BatchNorm2d (bn3)            [1, 2048, 7, 7]      [1, 2048, 7, 7]      4,096                True
│    │    └─Sequential (downsample)      [1, 1024, 14, 14]    [1, 2048, 7, 7]      2,101,248            True
│    │    └─ReLU (relu)                  [1, 2048, 7, 7]      [1, 2048, 7, 7]      --                   --
│    └─Bottleneck (1)                    [1, 2048, 7, 7]      [1, 2048, 7, 7]      --                   True
│    │    └─Conv2d (conv1)               [1, 2048, 7, 7]      [1, 512, 7, 7]       1,048,576            True
│    │    └─BatchNorm2d (bn1)            [1, 512, 7, 7]       [1, 512, 7, 7]       1,024                True
│    │    └─ReLU (relu)                  [1, 512, 7, 7]       [1, 512, 7, 7]       --                   --
│    │    └─Conv2d (conv2)               [1, 512, 7, 7]       [1, 512, 7, 7]       2,359,296            True
│    │    └─BatchNorm2d (bn2)            [1, 512, 7, 7]       [1, 512, 7, 7]       1,024                True
│    │    └─ReLU (relu)                  [1, 512, 7, 7]       [1, 512, 7, 7]       --                   --
│    │    └─Conv2d (conv3)               [1, 512, 7, 7]       [1, 2048, 7, 7]      1,048,576            True
│    │    └─BatchNorm2d (bn3)            [1, 2048, 7, 7]      [1, 2048, 7, 7]      4,096                True
│    │    └─ReLU (relu)                  [1, 2048, 7, 7]      [1, 2048, 7, 7]      --                   --
│    └─Bottleneck (2)                    [1, 2048, 7, 7]      [1, 2048, 7, 7]      --                   True
│    │    └─Conv2d (conv1)               [1, 2048, 7, 7]      [1, 512, 7, 7]       1,048,576            True
│    │    └─BatchNorm2d (bn1)            [1, 512, 7, 7]       [1, 512, 7, 7]       1,024                True
│    │    └─ReLU (relu)                  [1, 512, 7, 7]       [1, 512, 7, 7]       --                   --
│    │    └─Conv2d (conv2)               [1, 512, 7, 7]       [1, 512, 7, 7]       2,359,296            True
│    │    └─BatchNorm2d (bn2)            [1, 512, 7, 7]       [1, 512, 7, 7]       1,024                True
│    │    └─ReLU (relu)                  [1, 512, 7, 7]       [1, 512, 7, 7]       --                   --
│    │    └─Conv2d (conv3)               [1, 512, 7, 7]       [1, 2048, 7, 7]      1,048,576            True
│    │    └─BatchNorm2d (bn3)            [1, 2048, 7, 7]      [1, 2048, 7, 7]      4,096                True
│    │    └─ReLU (relu)                  [1, 2048, 7, 7]      [1, 2048, 7, 7]      --                   --
├─AdaptiveAvgPool2d (avgpool)            [1, 2048, 7, 7]      [1, 2048, 1, 1]      --                   --
├─Linear (fc)                            [1, 2048]            [1, 1000]            2,049,000            True
========================================================================================================================
Total params: 25,557,032
Trainable params: 25,557,032
Non-trainable params: 0
Total mult-adds (Units.GIGABYTES): 4.09
========================================================================================================================
Input size (MB): 0.60
Forward/backward pass size (MB): 177.83
…
